…
    "decoded = Conv2D(1, (3, 3), activation='sigmoid', padding='same')(x)\n",
    "\n",
    "autoencoder = Model(input_img, decoded)"
   ]
  },
  {
   "cell_type": "code",
   "execution_count": 9,
   "metadata": {},
   "outputs": [
    {
     "name": "stdout",
     "output_type": "stream",
     "text": [
      "Learning rate:  0.001\n",
      "_________________________________________________________________\n",
      "Layer (type)                 Output Shape              Param #   \n",
      "=================================================================\n",
      "input_1 (InputLayer)         (None, 256, 256, 1)       0         \n",
      "_________________________________________________________________\n",
      "conv2d_1 (Conv2D)            (None, 256, 256, 16)      160       \n",
      "_________________________________________________________________\n",
      "conv2d_2 (Conv2D)            (None, 128, 128, 16)      2320      \n",
      "_________________________________________________________________\n",
      "conv2d_3 (Conv2D)            (None, 64, 64, 8)         1160      \n",
      "_________________________________________________________________\n",
      "conv2d_4 (Conv2D)            (None, 32, 32, 8)         584       \n",
      "_________________________________________________________________\n",
      "conv2d_5 (Conv2D)            (None, 32, 32, 8)         584       \n",
      "_________________________________________________________________\n",
      "up_sampling2d_1 (UpSampling2 (None, 64, 64, 8)         0         \n",
      "_________________________________________________________________\n",
      "conv2d_6 (Conv2D)            (None, 64, 64, 8)         584       \n",
      "_________________________________________________________________\n",
      "up_sampling2d_2 (UpSampling2 (None, 128, 128, 8)       0         \n",
      "_________________________________________________________________\n",
      "conv2d_7 (Conv2D)            (None, 128, 128, 16)      1168      \n",
      "_________________________________________________________________\n",
      "up_sampling2d_3 (UpSampling2 (None, 256, 256, 16)      0         \n",
      "_________________________________________________________________\n",
      "conv2d_8 (Conv2D)            (None, 256, 256, 16)      2320      \n",
      "_________________________________________________________________\n",
      "conv2d_9 (Conv2D)            (None, 256, 256, 1)       145       \n",
      "=================================================================\n",
      "Total params: 9,025\n",
      "Trainable params: 9,025\n",
      "Non-trainable params: 0\n",
      "_________________________________________________________________\n"
     ]
    }
   ],
   "source": [
    "autoencoder.compile(optimizer=Adam(lr=lr_schedule(0)), loss='mse', metrics=[metrics.mae])\n",
    "autoencoder.summary()"
…
